Oct_hpo_best_deepsurv/deepsurv_inc_net.pt (torch, 6968 bytes, 13 tensors)

weight f4 [7, 8]
00000000: 7a7f 093c d8b0 673d 953c b1be 93b9 283d
00000010: 0e52 ef3d c2ad 643f 9171 c93e 136a 4a3f
00000020: a553 54bc 85ea adbe 3e9f 1a3f 9959 1b3e
00000030: 4bef 5a3e bfa1 103f 6fef 8dbe b008 6f3e
00000040: 4b94 483c fa5e b73d 9ca3 b9be 7d1c 533d
00000050: 3699 1a3e 9294 5a3f 1d6f cf3e 18f1 4a3f
00000060: 6dcd f3ba a52a 6c3e 20ba c9bf beca 103d
00000070: 6939 4b3d 5a36 9c3d 2b14 d63d b25b 9a3e
00000080: c8ee 083d 0d3a 643e 9b56 cc3e ea7b 423c
00000090: de8e 1c3e d7f5 f73e e61f 493f ac26 163f
000000a0: 28d9 ef3a af42 b7be 0226 5ebe 1f2c 753e
000000b0: 0424 a0bd 90b9 b03e 8f2e d03e e0f3 2b3e
000000c0: 8a99 dbbb 6df2 35bd 61f8 f73e 28a2 93bd
000000d0: 1659 453d 43f2 14bf badd dcbe b1f2 4fbf
0.008392209 0.056565136 -0.34616533 0.041192602 0.116855726 0.89327633 0.39344457 0.79068106
-0.012959396 -0.33967987 0.60399234 0.15170898 0.21380346 0.56496805 -0.27721736 0.23343158
0.012242387 0.08953662 -0.36257637 0.05154084 0.15097508 0.8538295 0.4051446 0.7927413
-0.001860065 0.23063143 -1.5759926 0.0353496 0.049615297 0.07627554 0.104530655 0.30148083
0.033430845 0.2228777 0.39909825 0.011870364 0.15288875 0.48429748 0.785643 0.5865276
0.001829897 -0.35793063 -0.21694186 0.23942612 -0.078193694 0.34516573 0.4066052 0.1679225
-0.006701653 -0.04442065 0.48431686 -0.07208663 0.048180662 -0.5818216 -0.43137914 -0.8122969

bias f4 [7]
00000000: 0d05 5c3f 549a 35bf dc24 643f 75c1 45bd
00000010: 8c56 15bf 6622 1eba 31ca 443e
0.85945207 -0.7093861 0.8911874 -0.048280198 -0.58335185 -0.00060323474 0.19217755

weight f4 [7]
00000000: f136 b13e dfc8 803e 2b31 b53e fbc0 863e
00000010: 07c9 803e eef8 763e 1b9c b23e
0.3461223 0.25153252 0.35389075 0.26319107 0.25153372 0.24118397 0.34884724

bias f4 [7]
00000000: 523e 30be 7f39 42bd e8e6 28be 000a 98bd
00000010: d19b 8cbd 9ba3 9abd 2d82 023e
-0.17211273 -0.047418114 -0.16494334 -0.07423782 -0.06865657 -0.075507365 0.1274497

running_mean f4 [7]
00000000: 0264 993f 4a66 353e 1947 a03f 727a 8e3e
00000010: f1ef 973e 9194 6c3f 0ff1 8f3e
1.1983645 0.17714801 1.2521697 0.27827793 0.29675248 0.92414194 0.281136

running_var f4 [7]
00000000: c22e c03e ce79 083e 0d1b fe3e c27e fc3d
00000010: 4130 6d3e 4e5a a33f 95d0 383e
0.37535673 0.13327715 0.49630013 0.12328865 0.23162939 1.2761934 0.18048318

weight f4 [3, 7]
00000000: 310e 55be a26e 59be 39a5 5dbe b7cf 28be
00000010: fee8 11be 513e 29be af43 803e 70f9 d13d
00000020: 1837 c23d 382d 243e db0b 413e 344e 5a3e
00000030: 76c5 053e d90e 42be 6b64 a1be 584e 80be
00000040: 8e3e 8dbe c7c6 44be d5f2 3abe cbc4 53be
00000050: c5f1 3d3e
-0.20806195 -0.2123361 -0.21645059 -0.16485487 -0.14249036 -0.16527678 0.25051638 0.102526546
0.094831645 0.16032875 0.18852179 0.21318895 0.13063607 -0.18950976 -0.31521925 -0.25059772
-0.27586788 -0.19216453 -0.18256696 -0.2068054 0.18549259

bias f4 [3]
00000000: 62dd 063f 48dd 303f a7dc 7e3e
0.52681553 0.6908765 0.2488886

weight f4 [3]
00000000: 3669 0c3f 89ae 043f a56f 103f
0.5484804 0.5182882 0.56420356

bias f4 [3]
00000000: 839b b43e fe82 aabe 226b 993e
0.35274896 -0.33303064 0.29964548

running_mean f4 [3]
00000000: 0971 2d3f be91 143f db28 e73e
0.677506 0.58034885 0.45148358

running_var f4 [3]
00000000: 6836 d23d fbde 793d 59ca f13d
0.102642834 0.061003666 0.11806173

weight f4 [1, 3]
00000000: 0e7b 15bf 13a7 0c3f a11c 16bf
-0.5839089 0.54942435 -0.58637434
