Oct_hpo_best_deephit/deephit_single_inc_net.pt (torch, 11363 bytes, 19 tensors)

weight f4 [14, 8]
0	0x397444a8	0.0002329523
1	0x3c790276	0.015198341
2	0xbd1978d1	-0.037468735
3	0x3bb0a429	0.005390663
4	0x3c6c84a8	0.014435925
5	0x3d939b90	0.072074056
6	0x3d118bba	0.035533644
7	0x3d5a30e4	0.053269282
8	0x3ac74671	0.0015203488
9	0x3c53dc0d	0.012930882
10	0xbd236157	-0.039887752
11	0x3b61f281	0.003447682
12	0x3c5a9089	0.013340124
13	0x3d6fc23a	0.05853484
14	0x3cbc025d	0.022950346
15	0x3d78d79f	0.060752507
16	0xbbe44ea4	-0.0069673825
17	0xbb99a4ed	-0.00468885
18	0x3c5ba4df	0.013406008
19	0xbc9591b3	-0.018257951
20	0x3b0b85a9	0.0021289384
21	0xbbc39bf2	-0.005969518
22	0xbc6171c0	-0.01376003
23	0xbc09690f	-0.008386864
24	0x3a482ff9	0.0007636543
25	0xbc6ef5da	-0.014584983
26	0xbc54718e	-0.012966527
27	0x3c7c62ac	0.015404385
28	0x3b0f0aa1	0.0021826404
29	0x3cea3b43	0.028592711
30	0x3c2dd4f2	0.010609852
31	0x3c9aa163	0.018875783
32	0x3b0098fb	0.0019622433
33	0x3c5e7941	0.013578714
34	0xbd036fc0	-0.032088995
35	0x3b9e0702	0.0048226127
36	0x3bcc0509	0.006226186
37	0x3d696009	0.056976352
38	0x3d34bc5f	0.044124957
39	0x3d6bd2a4	0.05757393
40	0x37dcff80	2.634502e-05
41	0x3c513d66	0.012770986
42	0xbd0e00ca	-0.03466872
43	0x3b0df41f	0.00216604
44	0x3c3918dc	0.011297431
45	0x3d950593	0.07276454
46	0x3d2ac3e1	0.04169071
47	0x3d808abf	0.06276464
48	0x39677b5e	0.00022075835
49	0xbaeeac20	-0.0018209256
50	0x3d22ce17	0.039747324
51	0xbb395313	-0.0028278276
52	0x3bfc31fd	0.0076963888
53	0xbd1d8da2	-0.03846515
54	0xbd1466ef	-0.036230978
55	0xbcc44a6a	-0.023961265
56	0xbbd7e448	-0.0065884925
57	0x36611826	3.354167e-06
58	0x3638a6ed	2.75153e-06
59	0x3a933ee4	0.0011233953
60	0x35b5f66a	1.3557267e-06
61	0xb5d63c8b	-1.5961863e-06
62	0x352bcc60	6.399987e-07
63	0xb5406004	-7.1665295e-07
64	0x3b5aecf1	0.0033405388
65	0xbc01f69a	-0.00793233
66	0x3bc9ff12	0.00616444
67	0x3ba3f807	0.0050039324
68	0x3b43252c	0.0029776795
69	0xbb1ca5e4	-0.002390259
70	0xbc0026f2	-0.007821785
71	0x3b18f1ee	0.002333756
72	0x399ad538	0.0002953203
73	0x3bcbfe8f	0.006225414
74	0xbd29513a	-0.04133723
75	0x3b5b9ebe	0.0033511366
76	0x3c912c75	0.017721394
77	0x3d8fae54	0.07015672
78	0x3d09900b	0.033584636
79	0x3d620db4	0.05518885
80	0x3b3c3c72	0.0028722552
81	0xbcf6b376	-0.03011487
82	0xbc19b1c7	-0.009380764
83	0x3c528259	0.01284846
84	0x3b0af6f9	0.0021204336
85	0x3d0dbd5e	0.034604423
86	0x3c0e3a90	0.008680955
87	0x3cdd43f5	0.027009944
88	0xbb068f43	-0.0020532168
89	0xbbe75dfe	-0.0070607653
90	0x3cd4f89e	0.025997456
91	0xbbeb46dc	-0.007180078
92	0xbb2fbcaa	-0.0026815333
93	0xbca07a17	-0.019589467
94	0xbcabb05e	-0.020958122
95	0xbbea7e48	-0.007156167
96	0x3aca80b4	0.0015449733
97	0x3baecaf4	0.0053342525
98	0xbcd715cd	-0.026255513
99	0x3c66c00a	0.014083872
100	0x3c718713	0.014741677
101	0x3d40c51f	0.04706299
102	0x3ce10795	0.027469436
103	0x3cf5e641	0.03001702
104	0xbb8066c3	-0.0039185
105	0xbc5fbc45	-0.013655727
106	0x3cb4b7e6	0.022060346
107	0xbc707f7d	-0.014678833
108	0xb9ef47ce	-0.0004563913
109	0xbc3ffc6f	-0.0117179
110	0xbc587926	-0.013212478
111	0xbc1702a8	-0.009216942

bias f4 [14]
0	0xbba31743	-0.0049771382
1	0x3b1e91dd	0.0024195828
2	0xbb23574a	-0.0024923855
3	0xbb120846	-0.0022282763
4	0x3ca6cdf4	0.020361878
5	0xbb177230	-0.0023108833
6	0x3d05496a	0.032540716
7	0xb5ae8d3c	-1.3005115e-06
8	0x3bc648b4	0.0060511474
9	0x3c1eadc0	0.00968498
10	0xbd1fd7e2	-0.03902424
11	0xbc12c37c	-0.00895774
12	0xba288a7e	-0.00064293284
13	0xbc121829	-0.008916893

weight f4 [14]
0	0x3d514a1e	0.051096074
1	0x3d25463c	0.040350184
2	0x3cfdc840	0.030979276
3	0x3d093dcd	0.033506203
4	0x3d727e27	0.05920234
5	0x3d88fce8	0.06688863
6	0x3d34b721	0.044119958
7	0xb97848a4	-0.00023678184
8	0x3c7cc8bc	0.015428718
9	0x3d585954	0.052819565
10	0x3d1b22f3	0.037875127
11	0x3ce78e6a	0.02826615
12	0x3d35ac24	0.04435362
13	0x3d073e4a	0.033018388

bias f4 [14]
0	0xbc19cd26	-0.00938729
1	0xbbf8ea39	-0.007596281
2	0x3c099859	0.008398139
3	0x3aaaf40a	0.00130427
4	0xbc7ac2db	-0.015305246
5	0xbcbfd128	-0.023415163
6	0x3cb48983	0.022038227
7	0x3999eba8	0.00029358012
8	0x3aa72c04	0.0012754207
9	0xbc805a50	-0.015668064
10	0xbc248cdd	-0.01004335
11	0x3c81d608	0.015849128
12	0xbc7a877a	-0.015291089
13	0x3c19ac93	0.009379524

running_mean f4 [14]
0	0x3d16c913	0.036812853
1	0x3d1b82d4	0.037966564
2	0x3dd23ee5	0.102659024
3	0x3d6fb910	0.0585261
4	0x3d74d282	0.05977107
5	0x3d0eb7bd	0.034843195
6	0x3cde3150	0.027123123
7	0x3d40a035	0.047027785
8	0x3d117f14	0.03552158
9	0x3d3aee5f	0.045637485
10	0x3d2c5585	0.042073745
11	0x3ce12e36	0.027487855
12	0x3d88ee8e	0.06686126
13	0x3d8bbbdf	0.06822943

running_var f4 [14]
0	0x3adbfbc8	0.0016783411
1	0x3af3b9e7	0.0018594832
2	0x3c96d127	0.018410278
3	0x3bbd8703	0.005783917
4	0x3b59890e	0.0033193263
5	0x3ab13c23	0.001352195
6	0x3a6147ee	0.0008593787
7	0x3b80c3ce	0.0039295917
8	0x3b3fbdba	0.0029257373
9	0x3afe3a8f	0.0019396114
10	0x3ba14527	0.0049215737
11	0x3ad53c96	0.0016268666
12	0x3bd965ed	0.006634465
13	0x3c0f2d5e	0.008738844

weight f4 [14, 14]
0	0x33145714	3.4538132e-08
1	0xb5125983	-5.4519495e-07
2	0xb3b02b03	-8.2034624e-08
3	0xb48d5bfc	-2.6330224e-07
4	0x39ff9428	0.00048747775
5	0xb4052f70	-1.2403848e-07
6	0xb9bda851	-0.00036174295
7	0xb6866d9a	-4.0062705e-06
8	0xb4667ab7	-2.1465063e-07
9	0xb9405462	-0.00018341982
10	0xb9881649	-0.00025956545
11	0xb3d80fe5	-1.0061175e-07
12	0x33f2e69c	1.1310951e-07
13	0xb1123e3c	-2.1281172e-09
14	0xbcb61c55	-0.022230307
15	0xbc331b34	-0.010931779
16	0x3c75d469	0.015004256
17	0xbcb7eac7	-0.022450818
18	0xbc633842	-0.013868393
19	0xbc1a32a5	-0.009411489
20	0x3c24c0ae	0.010055704
21	0x391ff8f6	0.00015256167
22	0x3b4f3ba5	0.0031621244
23	0xbc9d166d	-0.019175733
24	0xbbd5947b	-0.0065179444
25	0x3c5b9d25	0.013404165
26	0xbbdf2b03	-0.0068105473
27	0x3b8d6622	0.0043151537
28	0x3a3a5540	0.000710804
29	0xba0b85bb	-0.00053223566
30	0xb3c102e0	-8.987786e-08
31	0x2a2440e2	1.4588637e-13
32	0x3bae074c	0.0053109284
33	0x3cb65503	0.022257334
34	0x37ba8f26	2.2239587e-05
35	0xb6da2ea2	-6.502335e-06
36	0x340d56af	1.3163184e-07
37	0xbadb0560	-0.0016709976
38	0xbba0dda6	-0.004909235
39	0x37247eb4	9.804662e-06
40	0xba99f1bd	-0.0011745017
41	0x327c5d3a	1.4689528e-08
42	0x371bf0a7	9.294751e-06
43	0xb9af73b1	-0.00033464798
44	0x331a2460	3.5889002e-08
45	0xae7e0547	-5.77576e-11
46	0x3bd87e26	0.006606835
47	0x3b3addd9	0.002851358
48	0x386993d2	5.5689197e-05
49	0x36940826	4.4116923e-06
50	0x3491223d	2.7033266e-07
51	0x3ad96038	0.0016584462
52	0xb8a53b4d	-7.878859e-05
53	0x37c24433	2.315836e-05
54	0x3a5c333a	0.00083999673
55	0x37045c20	7.889263e-06
56	0x3ca2813b	0.019837013
57	0x3c229680	0.009923577
58	0xbc183570	-0.009290084
59	0x3bfbd0d6	0.0076848073
60	0x3c79cfd5	0.015247305
61	0x3c8e3aba	0.017361987
62	0xbca95d12	-0.020674262
63	0xba2f2d26	-0.0006682448
64	0x395305cf	0.00020124692
65	0x3c6a1fb2	0.014289783
66	0x3c948710	0.01813081
67	0xbc5d63e9	-0.01351259
68	0x3c6372d1	0.013882355
69	0xbc09f088	-0.0084191635
70	0x3cc9d42a	0.0246373
71	0x3c692b16	0.014231464
72	0xbc5da18f	-0.013527288
73	0x3c35f4be	0.011105714
74	0x3c609303	0.013706925
75	0x3c4a39ca	0.01234288
76	0xbc5cdf59	-0.013480985
77	0x396d5bbc	0.00022636255
78	0x3bffd739	0.007807639
79	0x3c993ad6	0.018704813
80	0x3c3e17a0	0.011602312
81	0xbc269d29	-0.010169306
82	0x3c823604	0.015894897
83	0xbc591443	-0.01324946
84	0x357c0c3a	9.389511e-07
85	0xaa820706	-2.3097512e-13
86	0x3713c4bb	8.807688e-06
87	0x31d4827a	6.1848455e-09
88	0x3d171ec3	0.03689457
89	0x3cc582ce	0.024110224
90	0x375618d3	1.2761174e-05
91	0x38d61e28	0.00010209932
92	0x3724aa9e	9.814887e-06
93	0x3bba42cd	0.005684233
94	0xbb0ef8ae	-0.0021815705
95	0xb8cb7914	-9.702347e-05
96	0xbaf022c9	-0.0018320914
97	0x36a6a416	4.9662876e-06
98	0x3997ead9	0.0002897594
99	0x3a140386	0.0005646277
100	0x315b7a4a	3.1938208e-09
101	0x27a85356	4.671972e-15
102	0x39f29fa9	0.00046276793
103	0x3be7fdcf	0.007079817
104	0x3439e8ec	1.7314204e-07
105	0x38af96e4	8.372756e-05
106	0x2f2a57b1	1.5492564e-10
107	0xb976d7e2	-0.00023540811
108	0xb23d61f5	-1.1023521e-08
109	0x33ffaab8	1.19054164e-07
110	0x3b27961b	0.0025571648
111	0xb22c4528	-1.0027442e-08
112	0xbc5c74ae	-0.013455553
113	0xbcad10f8	-0.021126255
114	0x3c72149d	0.014775422
115	0xbc1d96ad	-0.009618443
116	0xbc25f932	-0.010130214
117	0xbc4c9550	-0.012486771
118	0x3c1b7fe9	0.009490945
119	0xba5fe20b	-0.0008540458
120	0xbbe66555	-0.0070311227
121	0xbc84efe9	-0.01622768
122	0xbc1f1e3e	-0.0097118
123	0x3bf3b8a1	0.007437781
124	0xbc3060c3	-0.010765257
125	0x3c548c9e	0.012972979
126	0xbc741ddb	-0.014899696
127	0xbc590107	-0.013244874
128	0x3c03af1d	0.008037356
129	0xbc6a11be	-0.014286457
130	0xbc42875a	-0.011873091
131	0xbc2b5e22	-0.010459455
132	0x3c8399de	0.01606458
133	0xba47a8b5	-0.0007616387
134	0xbbd92516	-0.0066267354
135	0xbc555fee	-0.01302336
136	0xbc912b0f	-0.017720727
137	0x3c0d1cd7	0.008612833
138	0xbc5177ff	-0.012784957
139	0x3c67c64d	0.0141464
140	0x3c038eae	0.008029623
141	0x3c6df0b0	0.014522716
142	0xbc682611	-0.014169232
143	0x3c834f52	0.016029034
144	0x3c6bac31	0.014384315
145	0x3c39a34a	0.011330435
146	0xbc58825a	-0.013214672
147	0xba0f278c	-0.000546091
148	0x3bbc86e1	0.0057533835
149	0x3c7a5c77	0.015280834
150	0x3c3cd779	0.011525982
151	0xbc7dbd77	-0.0154870665
152	0x3bdc21a3	0.006717877
153	0xbc8c8ba9	-0.017156439
154	0xbc9f5462	-0.019449417
155	0xbc121d73	-0.008918154
156	0x3c46508d	0.012104166
157	0xbc3afd55	-0.011412938
158	0xbc7227cf	-0.014779999
159	0xbc2774f1	-0.010220752
160	0x3ca60269	0.020264821
161	0x387c6fe5	6.0185692e-05
162	0xbbc1b0a3	-0.0059109493
163	0xbc8985d8	-0.016787454
164	0xbc8ca227	-0.017167164
165	0x3c1c5c3e	0.009543477
166	0xbc196a6c	-0.009363752
167	0x3c4ad611	0.012380139
168	0x32c7cae1	2.3258908e-08
169	0xb73f3b4e	-1.1398295e-05
170	0xafc30fcd	-3.548152e-10
171	0x3046b63d	7.2290957e-10
172	0x37c25c95	2.3169714e-05
173	0x3a3d5f05	0.0007223937
174	0x307421d0	8.8814733e-10
175	0xac899df8	-3.9113122e-12
176	0x30840855	9.606632e-10
177	0xb5d6cfe8	-1.6004751e-06
178	0xb7860055	-1.59742e-05
179	0xaf2698dd	-1.515192e-10
180	0xb66e2972	-3.5488888e-06
181	0xb00a9543	-5.041622e-10
182	0xbc7bdf6b	-0.015373091
183	0xbc3d2146	-0.011543578
184	0x3c865cc0	0.016401649
185	0xbca0a9b8	-0.019612178
186	0xbb9e60c9	-0.004833315
187	0xbbb44584	-0.005501451
188	0x3c6a9ca3	0.014319572
189	0x394e8e3e	0.0001969868
190	0xb9dc4d28	-0.00042019156
191	0xbcb94cb1	-0.022619577
192	0xbbdd819d	-0.006759836
193	0x3c48242d	0.012215656
194	0xbc6751b3	-0.0141186
195	0x3c763f3f	0.0150297275

bias f4 [14]
0	0xb7acb708	-2.0589228e-05
1	0x3c0b9239	0.008518749
2	0xbcc3e262	-0.023911659
3	0xbbf637f6	-0.0075139953
4	0x3bc71135	0.0060750493
5	0x3bd6770b	0.0065449527
6	0xbd48ce53	-0.04902489
7	0xbc30ccb4	-0.0107909925
8	0x3ca53830	0.020168394
9	0x3c5939bc	0.013258394
10	0x3c304846	0.010759419
11	0x3c287949	0.010282823
12	0xb8c46aff	-9.365938e-05
13	0x3c1a9319	0.009434485

weight f4 [14]
0	0xb7802660	-1.5276659e-05
1	0x3d7864e0	0.060643077
2	0x3250f216	1.2162237e-08
3	0x32ce94d0	2.4049228e-08
4	0x3d6db0ca	0.058029927
5	0x3d6adce8	0.05733958
6	0x2d764276	1.3998238e-11
7	0x3648399a	2.983585e-06
8	0x3d7203d7	0.059085693
9	0x3d6630f9	0.056199048
10	0x3d72781c	0.059196576
11	0x3d7a2cb7	0.0610778
12	0xb496c4d7	-2.8082897e-07
13	0x3d6aec42	0.05735422

bias f4 [14]
0	0x397098ea	0.00022945149
1	0x3c41ad4c	0.011821102
2	0xb7ce5b9e	-2.4599776e-05
3	0xb82b544f	-4.0848096e-05
4	0xbc1bfd2b	-0.009520809
5	0xbc55776d	-0.013028962
6	0x33b4c84c	8.418337e-08
7	0xb6dcca10	-6.580034e-06
8	0x3c535011	0.012897507
9	0x3c7ecda2	0.015551956
10	0xbc350975	-0.011049618
11	0x3b9b475a	0.0047387304
12	0xb8cf3c6e	-9.881785e-05
13	0x3c68c3b9	0.01420682

running_mean f4 [14]
0	0x36b63db2	5.431205e-06
1	0x3c2c8375	0.010529389
2	0x00000004	6e-45
3	0x00000004	6e-45
4	0x3bb5fc32	0.0055537457
5	0x3bba76a2	0.0056904117
6	0x00000004	6e-45
7	0x00000004	6e-45
8	0x3cb23e01	0.021758081
9	0x3c733472	0.014844047
10	0x3c1bee18	0.009517215
11	0x3c33f789	0.01098431
12	0x36820dc8	3.8759063e-06
13	0x3c596963	0.013269755

running_var f4 [14]
0	0x2f8f6a66	2.608715e-10
1	0x380b5d28	3.322694e-05
2	0x00000004	6e-45
3	0x00000004	6e-45
4	0x381b5d92	3.7042024e-05
5	0x382a6a06	4.06299e-05
6	0x00000004	6e-45
7	0x00000004	6e-45
8	0x382d3a27	4.1300573e-05
9	0x383075a6	4.207124e-05
10	0x38247bd2	3.9215964e-05
11	0x382bb91a	4.0941966e-05
12	0x3006faea	4.9105486e-10
13	0x381a0526	3.6721256e-05

weight f4 [7, 14]
0	0xb9c04026	-0.00036668888
1	0xbcd4b58f	-0.02596548
2	0xb879ad7a	-5.952779e-05
3	0xb8b6edfc	-8.722764e-05
4	0x3c4757f3	0.012166965
5	0x3c400464	0.011719797
6	0xb3a4685f	-7.65583e-08
7	0x3960c595	0.0002143591
8	0xbca36f7a	-0.019950617
9	0xbcafad13	-0.021444833
10	0x3cd9752c	0.02654513
11	0xbd053552	-0.032521553
12	0xb7c2ae06	-2.3207638e-05
13	0xbca92609	-0.02064802
14	0x39a2bbe7	0.00031039046
15	0x3ccd480d	0.02505877
16	0x38917597	6.9360416e-05
17	0x3879bde8	5.954309e-05
18	0xbcd1733b	-0.025567641
19	0xbd061d9c	-0.03274308
20	0xb392ae42	-6.830352e-08
21	0x38bf49bd	9.1213245e-05
22	0x3cbb0600	0.02283001
23	0x3ccc91b4	0.02497182
24	0xbcb3ce1e	-0.02194887
25	0x3cb54de5	0.02213187
26	0xb79399c4	-1.7595368e-05
27	0x3cb1f8cf	0.021725086
28	0xb99be2d8	-0.00029732916
29	0xbcef9d66	-0.029249858
30	0x3818f961	3.6471876e-05
31	0x39856067	0.00025439562
32	0x3c9d20f4	0.019180752
33	0x3c39edf6	0.011348238
34	0xb4001e93	-1.1932052e-07
35	0x39c3000b	0.0003719333
36	0xbcba51c0	-0.02274406
37	0xbcdc94fc	-0.02692651
38	0x3cb520c0	0.022110343
39	0xbcd80547	-0.026369704
40	0xb7b038d1	-2.1007292e-05
41	0xbc9c3c44	-0.019071706
42	0x39fda140	0.0004837606
43	0xbce2d5a3	-0.02768976
44	0x381ad2d5	3.6912814e-05
45	0xb7a24476	-1.9343785e-05
46	0x3c746c83	0.014918449
47	0x3ca9e26f	0.020737855
48	0x3308bf49	3.183894e-08
49	0xb787022b	-1.6094264e-05
50	0xbcd123b5	-0.025529722
51	0xbca77e87	-0.020446075
52	0x3c8e2d6a	0.01735564
53	0xbcd5ae9e	-0.02608424
54	0xb83f1cc0	-4.5564724e-05
55	0xbce0207d	-0.027359242
56	0xb9118581	-0.00013878012
57	0x3ce39433	0.027780628
58	0x3855b0f2	5.094795e-05
59	0xb7715c01	-1.4386141e-05
60	0xbce1dcd5	-0.027571121
61	0xbcf15799	-0.029460715
62	0x34196f73	1.428978e-07
63	0x38177af8	3.611573e-05
64	0x3cef29f7	0.029194815
65	0x3cc4046f	0.023927895
66	0xbccf321d	-0.02529245
67	0x3ca0ddea	0.019637067
68	0x38a65a78	7.932348e-05
69	0x3ca55b7c	0.020185225
70	0xb9855871	-0.0002543363
71	0x3cb3a01b	0.02192693
72	0xb8a30cbb	-7.774817e-05
73	0xb875053a	-5.841742e-05
74	0xbcabf1de	-0.020989355
75	0xbcb3025e	-0.021851715
76	0x34440dfd	1.8259011e-07
77	0x36907277	4.30486e-06
78	0x3cc5c65b	0.024142435
79	0x3cad98e9	0.021191077
80	0xbcb365e5	-0.021899173
81	0x3cbe8cec	0.023260556
82	0x38cbd017	9.718554e-05
83	0x3cc252a1	0.023721041
84	0xb97842bc	-0.00023675984
85	0x3c97b97a	0.01852106
86	0xb7323dff	-1.0624061e-05
87	0x379d49b9	1.8750188e-05
88	0xbcd978ea	-0.026546914
89	0xbcc9fbe1	-0.024656238
90	0x32ba51c2	2.1690429e-08
91	0xb7e7c9fa	-2.7631399e-05
92	0x3cbb0289	0.022828357
93	0x3cb60ed7	0.022223873
94	0xbcd192c0	-0.025582671
95	0x3caad86c	0.020855151
96	0x39189d64	0.00014554482
97	0x3cd27833	0.025692081

bias f4 [7]
0	0x3c4a8a5d	0.01236209
1	0x3c1e3ac8	0.009657569
2	0x3c448062	0.0119934995
3	0x3c7468e6	0.014917588
4	0x3c0ec315	0.008713503
5	0x3c2201c4	0.009888116
6	0x3c408760	0.011751026

weight f4 [7]
0	0x3e175dae	0.1478183
1	0x3e2e39bc	0.17014211
2	0x3e16a45f	0.1471114
3	0x3e11c055	0.14233525
4	0x3e339f7e	0.1754131
5	0x3e343184	0.17597014
6	0x3e2c86c8	0.1684829

bias f4 [7]
0	0xbf6b98cb	-0.9203002
1	0x3f6c8b82	0.9240037
2	0xbf6bcece	-0.92112434
3	0xbf6b923e	-0.9202002
4	0x3f6c3e33	0.9228241
5	0x3f6cb0f0	0.92457485
6	0x3f6bc82b	0.9210231

running_mean f4 [7]
0	0x3c36af1e	0.01115015
1	0x3c5d37b2	0.013502048
2	0x3c221c4f	0.009894445
3	0x3c517e0f	0.012786402
4	0x3c4ab292	0.012371676
5	0x3c47b29b	0.012188579
6	0x3c6b5d3e	0.014365492

running_var f4 [7]
0	0x3883ec88	6.290624e-05
1	0x389e1446	7.537803e-05
2	0x388090d1	6.13049e-05
3	0x38964425	7.16525e-05
4	0x389fb7ab	7.615922e-05
5	0x38870223	6.4376996e-05
6	0x3897ae63	7.232723e-05

weight f4 [17, 7]
0	0x3e2ffcb0	0.17186236
1	0xbe312918	-0.17300832
2	0x3e30108b	0.1719381
3	0x3e2fde26	0.17174587
4	0xbe304776	-0.1721476
5	0xbe2e3f2b	-0.17016284
6	0xbe2ffd79	-0.17186536
7	0x3de8bb6d	0.11363874
8	0xbddb048e	-0.10694228
9	0x3dd7d901	0.10539437
10	0x3ddf0d6a	0.108912304
11	0xbddd47d2	-0.10804714
12	0xbdd98b5e	-0.10622285
13	0xbde9ae98	-0.11410254
14	0x3dce9b85	0.10088257
15	0xbdbd8901	-0.09254647
16	0x3dc49dd1	0.096004136
17	0x3dd272c5	0.10275797
18	0xbdcbbe8e	-0.09948455
19	0xbdcb561a	-0.09928532
20	0xbdb8d6e4	-0.09025362
21	0x3dc3b2ab	0.095555626
22	0xbdc463dc	-0.09589359
23	0x3dc3e6b6	0.09565489
24	0x3dc2049a	0.09473534
25	0xbdb40e52	-0.08791794
26	0xbdbbaf1e	-0.0916426
27	0xbdbff24a	-0.09372385
28	0x3da98f74	0.08279315
29	0xbdb2228a	-0.08697994
30	0x3da3bc19	0.07994861
31	0x3d9e9727	0.07743674
32	0xbd9fd9fb	-0.07805248
33	0xbda59784	-0.0808554
34	0xbdae0120	-0.08496308
35	0x3d8e8c63	0.069603704
36	0xbd8f79e3	-0.0700567
37	0x3d9896e3	0.07450654
38	0x3d941315	0.07230202
39	0xbd92bfc3	-0.07165482
40	0xbda74f6e	-0.08169447
41	0xbd942225	-0.07233075
42	0x3d61c5f3	0.05512042
43	0xbd5ddd63	-0.05416621
44	0x3d56496b	0.05231611
45	0x3d6eab6e	0.058268957
46	0xbd6cf416	-0.057849966
47	0xbd51c855	-0.051216442
48	0xbd5b4aa8	-0.053537995
49	0x3d5c8abd	0.05384325
50	0xbd582613	-0.052770685
51	0x3d5b521b	0.0535451
52	0x3d832e52	0.06405319
53	0xbd637645	-0.055532712
54	0xbd56f629	-0.05248085
55	0xbd69c4af	-0.057072338
56	0x3d45ebb1	0.048320476
57	0xbd3d78bd	-0.046257723
58	0x3d4118c9	0.047142778
59	0x3d1f08a9	0.03882662
60	0xbd47e3d1	-0.048801247
61	0xbd4c7858	-0.049919456
62	0xbd3e86af	-0.046515163
63	0x3d09b591	0.03362042
64	0xbd1b4577	-0.037908044
65	0x3d02b282	0.03190852
66	0x3d1cff78	0.03832957
67	0xbd1a28c4	-0.037636533
68	0xbd0ff6f8	-0.035147637
69	0xbd0d106b	-0.034439486
70	0x3db14836	0.08656351
71	0xbdb6e2e2	-0.08929993
72	0x3da4d731	0.08048857
73	0x3db87f53	0.0900866
74	0xbdaf5d7d	-0.08562753
75	0xbdb2a2d0	-0.0872246
76	0xbdab3551	-0.08359779
77	0x3d98d829	0.07463104
78	0xbda1696a	-0.07881434
79	0x3da1ce98	0.07900733
80	0x3da0b666	0.0784729
81	0xbda5c0e9	-0.08093435
82	0xbda1df87	-0.079039626
83	0xbdabdfe7	-0.08392315
84	0x3da4a702	0.08039667
85	0xbda192f1	-0.07889355
86	0x3d9c2b8e	0.07625495
87	0x3d9aceab	0.0755895
88	0xbd9eea7b	-0.07759567
89	0xbd9b1a3e	-0.07573365
90	0xbd9e36b8	-0.077252805
91	0x3d97c143	0.074099086
92	0xbd9a5c94	-0.07537189
93	0x3d997395	0.07492749
94	0x3d98f388	0.07468325
95	0xbd90942a	-0.0705951
96	0xbd953080	-0.07284641
97	0xbd9d09f6	-0.076679155
98	0xbd14d1b2	-0.036332794
99	0x3cf5673f	0.029956458
100	0xbced92ff	-0.029000757
101	0xbcb5e4bb	-0.022203794
102	0x3ccfa2d4	0.025346197
103	0x3cea0c68	0.028570369
104	0x3cf2b465	0.029627034
105	0xbdd08597	-0.1018173
106	0x3dd89d0a	0.10576828
107	0xbdc244dc	-0.0948579
108	0xbdc4e14c	-0.096132845
109	0x3ddf80d8	0.10913247
110	0x3dd5ce68	0.104397595
111	0x3dd69971	0.104784854
112	0xbf5dfc7d	-0.8671339
113	0x3f609427	0.8772606
114	0xbf5ebe5d	-0.8700922
115	0xbf5e8391	-0.86919504
116	0x3f617eaf	0.8808393
117	0x3f60349a	0.87580264
118	0x3f60c3bd	0.8779867
